training/model.tflite (tflite, 741824 bytes, 16 tensors)

sequential_2/conv2d/Relu;sequential_2/conv2d/BiasAdd;sequential_2/conv2d/Conv2D;sequential_2/conv2d/BiasAdd/ReadVariableOp f4 [32, 3, 3, 3]
000000 1f 25 ae b9 e0 5f b3 b9 cd dc 44 b9 02 d5 55 b9
       -0.00033215524 -0.00034212973 -0.00018774271 -0.00020392615
000010 4e 24 07 ba 56 d6 66 39 7b c8 13 39 08 2d 06 3a
       -0.0005155251 0.00022014356 0.00014093697 0.00051184045
000020 65 3c 69 b9 45 cb 01 ba 53 e0 cd b8 8c ce 06 3a
       -0.0002224311 -0.0004951249 -9.8169454e-05 0.0005142472
000030 30 d6 17 39 cf 77 70 39 84 0c 6f 37 94 13 a7 b9
       0.00014480273 0.00022932816 1.4248424e-05 -0.0003186731
000040 a7 a1 98 b9 de dd 5e 39 db 5c b1 b9 b4 33 2c 37
       -0.0002911214 0.00021254222 -0.00033829254 1.0264037e-05
000050 23 20 b7 b7 56 6e 19 39 17 db 09 3a 72 08 3d b9
       -2.1830265e-05 0.0001463232 0.0005258782 -0.0001802759
000060 04 1e 8c b9 e4 c0 b5 b9 5f 10 0e 3a 94 40 cc b9
       -0.00026725244 -0.00034666725 0.00054193096 -0.00038958027
000070 c3 c0 75 b9 db 0d 24 3a 01 04 20 39 a3 cf d6 38
       -0.0002343683 0.0006258168 0.0001526028 0.000102429905
000080 cd 89 a7 39 3c 14 ff 39 17 22 8f b8 36 9b d7 39
       0.00031955392 0.00048652466 -6.825121e-05 0.00041123637
000090 3b 71 da b9 4f 78 8b b9 1d 7d b8 b9 aa 8a 98 b9
       -0.00041664563 -0.00026601783 -0.00035188432 -0.00029095012
0000a0 d3 18 42 b9 af 5b 88 b8 6e 5b be b8 16 7e ff b9
       -0.0001851053 -6.502063e-05 -9.076936e-05 -0.00048731331
0000b0 79 95 b9 b8 56 f3 29 ba aa c1 73 39 05 3c 0e b9
       -8.849329e-05 -0.0006483098 0.00023246431 -0.00013564534
0000c0 24 84 e2 b9 bc 61 d3 39 4d 63 84 38 1e 0e 2d 36
       -0.00043204532 0.00040317874 6.312747e-05 2.5787226e-06
0000d0 fb 1c 27 ba 14 39 82 b7 86 a9 4d 39 fa f9 02 ba
       -0.0006374863 -1.5523787e-05 0.00019613476 -0.0004996356
0000e0 8a 37 12 ba 18 80 ff 39 86 90 c4 39 e8 96 a4 39
       -0.0005577734 0.00048732827 0.00037491712 0.00031392951
0000f0 06 da 88 b9 90 1a 66 39 e7 9a a0 b9 68 3a 00 3a
       -0.00026102382 0.00021944405 -0.0003063299 0.0004891516
000100 0f 24 b4 b9 eb 9f 01 3a 27 51 25 b9 55 50 c0 b7
       -0.0003435914 0.0004944789 -0.00015765858 -2.2925591e-05
000110 c4 84 6e b5 d4 5a d0 b8 ea 05 ea 39 a2 a7 e8 b9
       -8.885511e-07 -9.935131e-05 0.00044636364 -0.00044375384
000120 07 5c e2 b9 c7 42 7b b9 03 94 1a b9 45 4b 6a 39
       -0.00043174645 -0.00023962102 -0.00014741723 0.00022344019
000130 a0 fb d5 b8 db 89 ce b8 bb 7f b1 39 62 00 55 b9
       -0.000102035 -9.848523e-05 0.00033855237 -0.00020313406
000140 c7 05 d4 38 bf 9f ce 39 60 37 bb 38 8c 42 88 39
       0.00010110024 0.00039410402 8.927169e-05 0.00025989523
000150 a5 72 a3 39 3d f8 02 b8 b8 cf ed b8 2a 2a 39 39
       0.000311752 -3.1225605e-05 -0.00011339731 0.00017658682
000160 a8 48 be 38 a1 a2 d9 38 ea 27 25 3a 7e 51 1f ba
       9.073439e-05 0.00010377658 0.0006300198 -0.0006077512
000170 e2 f1 f3 39 9c e9 f7 b9 75 30 da 38 6e 69 ad b9
       0.00046528789 -0.00047285564 0.00010404076 -0.00033075683
000180 8f d4 9c 39 89 37 e0 b9 83 06 fe 39 13 e2 13 3a
       0.00029913007 -0.00042765986 0.00048451507 0.00056412927
000190 ee 15 e2 b9 36 ce 2c 39 96 bd 52 b9 af d1 54 ba
       -0.00043122418 0.00016480018 -0.00020097787 -0.00081184035
0001a0 3d 2e 3b ba a0 fc d5 b7 24 db 0e ba 0e b9 39 b9
       -0.0007140374 -2.5509216e-05 -0.00054495246 -0.00017711913
0001b0 f3 04 06 ba ef 0c aa 39 41 bf a3 37 02 3a 20 ba
       -0.0005112432 0.00032434563 1.9520174e-05 -0.00061121595
0001c0 a6 85 c6 b9 67 ef aa b8 27 2a ff b9 1d 9e 43 39
       -0.0003786508 -8.150824e-05 -0.00048668796 0.00018655551
0001d0 b2 69 3d ba 90 1d 28 39 1a 9b a3 38 34 5b b0 39
       -0.00072255277 0.00016032741 7.8013356e-05 0.00033637288
0001e0 f1 66 1f ba b0 da 02 3a 54 7a 48 b9 61 02 16 ba
       -0.0006080708 0.00049916934 -0.00019119057 -0.00057224004
0001f0 1a da a4 b8 76 10 ae b9 f2 73 62 39 0a 25 22 3a
       -7.860754e-05 -0.0003320013 0.00021596233 0.0006185329
000200 7c f9 fd b9 eb d8 a0 39 0a ad 2c b8 8f 8c 90 b9
       -0.000484418 0.00030679195 -4.116915e-05 -0.00027570545
000210 ab 51 53 b9 ae d4 b3 39 96 91 56 39 cf 3e 10 ba
       -0.00020152952 0.000343 0.00020462865 -0.0005502523
000220 eb 27 24 ba 01 c5 b6 38 e9 a2 81 39 e1 a8 c3 39
       -0.0006262052 8.715131e-05 0.00024726175 0.00037319123
000230 61 fd 2a ba 2a fe d1 b9 1b c9 ca b9 ef 93 07 b9
       -0.0006522742 -0.00040052953 -0.00038678278 -0.00012929713
000240 83 e3 fb b9 03 31 fb b9 84 55 c5 b9 1c ab 43 b8
       -0.0004804396 -0.00047910967 -0.00037638482 -4.665098e-05
000250 d7 4b 82 38 64 b5 2d b9 49 1d de b9 78 bd e9 38
       6.213009e-05 -0.00016566139 -0.0004236496 0.00011145597
000260 c4 27 77 39 bd 14 92 b8 e2 9c 0a 3a 5d 51 02 ba
       0.0002357057 -6.965685e-05 0.00052876596 -0.00049712305
000270 9b af 8e b9 bb c4 13 39 b6 08 96 39 c8 10 03 3a
       -0.00027215187 0.000140923 0.0002861672 0.0004999754
000280 69 5b 13 3a 38 72 72 39 9a dc cd 39 a0 24 04 39
       0.0005621226 0.00023121468 0.00039265008 0.00012602145
000290 58 f9 0e ba e3 d8 7a b8 c4 4c 8e 38 b4 8d 03 39
       -0.0005454025 -5.9806636e-05 6.785386e-05 0.00012545922
0002a0 c9 76 c9 37 88 05 b1 38 32 80 bc 39 65 c5 19 ba
       2.401638e-05 8.441048e-05 0.00035953667 -0.0005865901
0002b0 a6 3c 06 ba 96 be fc b9 4a 1d 58 b9 fd 52 ca b9
       -0.00051207317 -0.00048207183 -0.00020610276 -0.00038590273
0002c0 5d a0 a6 39 0f 8d 66 38 a5 79 d9 39 69 9b a2 38
       0.00031781467 5.4967644e-05 0.00041480098 7.753709e-05
0002d0 9c 22 37 ba 30 41 16 b8 1a a6 8a b7 f1 c4 9c b9
       -0.0006986053 -3.5823497e-05 -1.6528229e-05 -0.0002990137
0002e0 66 8f 0b ba f4 1d a6 39 ad 40 8b 39 5f cb 0b ba
       -0.0005323797 0.00031684304 0.00026560333 -0.0005332734
0002f0 92 40 e3 b9 99 bf c7 39 e4 23 2b b9 4c c7 a5 b8
       -0.00043344923 0.0003809899 -0.00016321201 -7.904935e-05
000300 bb 71 c1 b9 f8 3b 86 39 21 29 b5 b8 d8 40 06 39
       -0.00036896564 0.00025603152 -8.6384134e-05 0.00012803392
000310 8a 5f 23 37 8f 48 91 b8 7d c2 0c ba 5b 25 39 39
       9.7378015e-06 -6.927654e-05 -0.0005369557 0.00017656891
000320 d8 f6 31 39 3d a2 db b9 84 0c 7d 39 b7 2e 72 b9
       0.00016971992 -0.00041891812 0.00024132623 -0.00023096321
000330 a9 f8 2e 37 50 a6 41 b8 dc 49 88 b9 cc 69 9a 39
       1.0429104e-05 -4.6169676e-05 -0.0002599497 0.00029451994
000340 9d c2 1b b9 6a a8 a2 b9 f2 52 96 37 07 84 95 b5
       -0.00014854451 -0.00031024526 1.7920018e-05 -1.113979e-06
000350 c2 c0 93 39 26 43 13 ba 66 6f 26 39 7f e4 c3 b9
       0.0002818164 -0.0005617611 0.00015872493 -0.0003736354
000360 83 f9 d0 37 36 26 0f ba 2f fd 4c b9 95 4e d5 b8
       2.491172e-05 -0.0005460711 -0.00019549274 -0.000101712685
000370 4c 66 75 b9 0f ba 10 b9 1d b2 f3 39 0e 42 e2 b7
       -0.0002340313 -0.00013802222 0.00046481277 -2.6972059e-05
000380 17 a0 08 3a 35 18 79 b8 34 3d f1 b9 c2 c1 c7 39
       0.00052118435 -5.938877e-05 -0.00046012702 0.000381006
000390 94 1c 14 3a db d9 20 ba 56 19 09 3a 22 59 74 b9
       0.00056500104 -0.00061359786 0.00052299106 -0.00023302858
0003a0 8e e7 20 ba 1f 41 93 b7 f9 78 b5 39 76 8f 15 39
       -0.000613802 -1.755409e-05 0.00034613142 0.0001426319
0003b0 35 2c 4b b7 ba 76 99 39 a3 dc eb 39 c8 75 9a b9
       -1.2110036e-05 0.00029270892 0.0004498708 -0.00029460923
0003c0 ad 3a ba 39 8c 04 51 39 fd ef ee 39 c0 06 44 ba
       0.000355204 0.00019933487 0.00045573703 -0.00074778125
0003d0 e8 08 b9 b9 27 8a 00 3a 91 a9 18 ba 78 55 8d b9
       -0.00035292585 0.0004903399 -0.0005823607 -0.00026957295
0003e0 9c e0 21 b9 29 db 0c 39 36 47 fa b8 c3 07 1d b9
       -0.0001543783 0.00013433084 -0.00011934193 -0.00014975578
0003f0 b1 28 94 b8 fa 7c f1 b9 07 a9 37 39 22 2d 7d b9
       -7.064769e-05 -0.00046060217 0.00017515208 -0.00024144773

sequential_2/conv2d/BiasAdd/ReadVariableOp f4 [32]
000000 09 f0 b0 bc dc 26 45 bc 88 83 1b bd 91 51 22 3c
       -0.021598833 -0.012033191 -0.037967235 0.009907142
000010 da da 6e 3d 9e 08 be ba 74 59 09 bd 69 d8 1e bc
       0.058314182 -0.0014498418 -0.033532575 -0.009695151
000020 39 d3 00 bd ee 99 1c 3b a6 13 73 bd ac 9e 1f bd
       -0.031451438 0.002389546 -0.05934491 -0.03896968
000030 82 7d f3 bb 55 68 6d bd af 4f 4b bc 42 9e 2e 3d
       -0.007430733 -0.057960827 -0.012409135 0.042631395
000040 53 80 6d 3c 92 cd a7 bc 00 00 00 00 ad 20 56 bc
       0.014495927 -0.020483766 0.0 -0.013069314
000050 15 c6 8f ba 6e 88 47 bd f0 1b 9e bc b5 15 bd bc
       -0.0010969067 -0.048714094 -0.019300431 -0.02308164
000060 b8 73 a9 bc 3b 0a a7 bc 94 47 8b bc b7 79 03 bc
       -0.020685062 -0.02039062 -0.017001905 -0.008024625
000070 04 73 4f 3c 13 7e 52 bc cb 6f 7d 3d 06 92 54 bc
       0.012661699 -0.012847441 0.061874192 -0.012974268

sequential_2/conv2d_1/BiasAdd/ReadVariableOp f4 [64]
000000 43 4f 8c 3d 2c 0f 77 3d da e2 ec bc 83 a1 61 bd
       0.068510555 0.060317203 -0.028916765 -0.05508567
000010 48 64 ef bc c3 ea a3 3d 86 1a 41 bd 69 03 24 bd
       -0.029222623 0.080037616 -0.047144435 -0.040042315
000020 48 1d 53 bd fb 9c 39 bc af 8e ef bc da c1 68 bc
       -0.051541597 -0.011328931 -0.029242842 -0.014206374
000030 39 d5 0f bd 19 ce fa bb 7b 07 3c 3c 56 d8 3c bd
       -0.035115454 -0.0076539633 0.011476393 -0.04610475
000040 85 b3 08 3c cd 28 20 bd bb a1 28 bd 39 65 20 bd
       0.008343582 -0.03910141 -0.041169863 -0.039159033
000050 c3 e5 c6 3b 31 77 1b bd e9 14 d5 bc 01 f0 28 bd
       0.00606987 -0.037955467 -0.026010947 -0.04124451
000060 34 23 76 3c 9e 09 3f bc 8c 35 98 bc 05 7b 85 bc
       0.0150230415 -0.011660008 -0.01858022 -0.016294012
000070 20 86 4a bc 96 e8 9d bc 63 66 06 3d 64 b9 96 bc
       -0.012361079 -0.019275945 0.032812487 -0.018398948
000080 6e 4e 64 bb 7f 6b ed bc 47 0e 28 bd 19 35 89 bb
       -0.0034836787 -0.028981922 -0.04102924 -0.004187238
000090 d9 6c 99 bb 3b ad 93 3d dc 3e 95 bc 1a 9f eb bc
       -0.004682165 0.072107755 -0.01821845 -0.028762389
0000a0 53 aa a6 3c ff 87 eb 3c 99 0b ba bc 9e 33 c8 3c
       0.020344889 0.028751371 -0.022710608 0.024438675
0000b0 d7 33 48 bd e9 59 8d bc 03 0f 87 bc 53 3d dd bc
       -0.048877563 -0.017254787 -0.01648665 -0.02700678
0000c0 8c 5e 18 b9 9b a6 3e bc 73 19 c9 bc 43 0d d6 bb
       -0.00014531071 -0.0116364015 -0.024548268 -0.0065323426
0000d0 04 2b 9c bc 15 e5 2e bc 75 75 1f 3c f2 93 12 bd
       -0.01906348 -0.010674735 0.009732594 -0.035785623
0000e0 4a 96 a9 bc a1 48 9e bc 9d 17 e7 bc 4b f6 a8 bc
       -0.020701546 -0.019321742 -0.028209502 -0.020625254
0000f0 c2 af 63 3d 0f 75 1e bd 09 6d 07 bd 65 fa 40 bd
       0.055587538 -0.038685855 -0.03306297 -0.047113795

sequential_2/conv2d_2/BiasAdd/ReadVariableOp f4 [64]
000000 8a 6a 5c 3d 64 46 76 3d 79 54 c9 bc e7 c0 21 bc
       0.05381254 0.060125723 -0.024576413 -0.009872652
000010 dc 70 0f bd 21 79 0a 3d 23 0b bb bb 0f ad 01 bc
       -0.03501974 0.033806924 -0.0057081147 -0.007914796
000020 cf 0d 7a bc d5 3c 87 bc 4b 57 10 3d da 0d 05 bd
       -0.015262081 -0.0165085 0.0352395 -0.032483913
000030 d4 3f a9 3c b7 fc 9d bc d9 4a 2c ba 75 05 0b bd
       0.020660318 -0.019285543 -0.00065724325 -0.03394075
000040 a3 34 9b bc aa 17 cf 3b 81 bb 3c bc 16 95 a5 bc
       -0.018945998 0.0063199596 -0.011519314 -0.020212691
000050 80 1f 41 bc 38 01 93 3b b7 c8 df bb 98 d9 cc 3b
       -0.011787295 0.0044862293 -0.006829347 0.006251525
000060 88 06 73 bc 84 7e 28 bd eb 15 74 3a ef 2d 53 bd
       -0.0148331 -0.04113628 0.00093111274 -0.051557478
000070 ac 18 db bb 9f c7 73 bc dd d3 33 bc 92 8c f3 bc
       -0.0066862907 -0.014879136 -0.010975805 -0.029730115
000080 04 74 09 3d e4 d2 2f bc c2 58 54 3c da 53 01 bd
       0.033557907 -0.010731433 0.012960615 -0.031574108
000090 a8 72 89 bb e4 18 be bc 0b a0 8a 3d 3b 83 ce bc
       -0.0041945763 -0.023205228 0.06768807 -0.02520906
0000a0 1f 39 5c 3c 5f 80 64 bc 07 4a 44 bc 59 eb 11 bc
       0.013441353 -0.013946622 -0.01198054 -0.008906209
0000b0 0e 7b 82 bc 37 50 05 ba 72 67 80 3c 9a 9d e0 bc
       -0.015927818 -0.00050855003 0.015674327 -0.0274189
0000c0 89 49 94 bc 15 bb b9 3b 80 b1 b5 bc f2 4f 2d 3b
       -0.01810147 0.005668054 -0.022179365 0.0026445356
0000d0 74 56 06 bc 72 d5 79 bc e3 c6 e3 bc 35 09 e7 3b
       -0.008199323 -0.015248643 -0.027804798 0.007050658
0000e0 07 d7 8f bc f8 29 05 3d ad 00 3e 3d 84 9a ba 3b
       -0.017558588 0.032510728 0.046387363 0.005694689
0000f0 5e 38 e5 3b 7e 60 8a bc f7 7a 77 3d 36 0a aa bc
       0.006995245 -0.016891714 0.060420003 -0.020756822

sequential_2/conv2d_3/BiasAdd/ReadVariableOp f4 [64]
000000 3e bc a1 bc 17 0c 9c 3a f1 63 ad bc 9d 65 91 3c
       -0.019743081 0.0011905459 -0.02116582 0.017748648
000010 ac 58 20 3c c6 7d 18 3c 8c 40 47 bc 6c be 0f 3c
       0.009786766 0.0093073305 -0.012161385 0.008773427
000020 5a 67 e1 bc d5 0d 1f bd 80 ce 32 bc 37 0d 73 bc
       -0.027515102 -0.03883155 -0.010913491 -0.014834694
000030 8c 92 3b 3b f8 ee e5 3c 41 d0 ee bb 35 ec 8f 3c
       0.0028621284 0.02806805 -0.0072880094 0.017568687
000040 9a 56 9a bc 78 db a2 3a 56 0f 87 bc 77 ad b5 bb
       -0.018840123 0.0012425026 -0.016486805 -0.0055443603
000050 79 9a 95 3c 69 a0 9b bc 45 c5 08 bd c8 78 86 bc
       0.018262135 -0.018997388 -0.033391256 -0.016415015
000060 c1 bb b1 3c 10 e4 1c 37 4f 9a f0 bc c1 61 3b bc
       0.021695973 9.3514245e-06 -0.029370455 -0.011436881
000070 bf ea bf bb e5 81 d1 ba 52 98 0e bd 67 ae 79 bc
       -0.0058568413 -0.0015984146 -0.034813233 -0.015239335
000080 e0 d2 86 bc d4 c7 1f 3d 96 55 19 bc 2f 8f e0 bc
       -0.016457975 0.03900893 -0.009358784 -0.027412025
000090 45 b1 24 bd 94 92 dd ba 35 9f 1f bd 08 96 31 3d
       -0.04020812 -0.0016904646 -0.03897019 0.04335597
0000a0 eb c9 45 3d 52 72 34 ba b8 fb 0d bd 79 5a 12 3d
       0.048288267 -0.000688349 -0.034663886 0.035730813
0000b0 15 06 02 bc b3 44 92 3b 3a de 3b bc 50 95 03 bd
       -0.00793602 0.004463756 -0.011466557 -0.032124817
0000c0 05 4f 0e bc 77 bb 24 3d 2a 93 07 3d 36 5f 27 bc
       -0.008685832 0.040217843 0.03309933 -0.010215571
0000d0 92 fb 56 3c 44 d1 f7 bc 1c 81 7e bc cb b5 f6 3b
       0.0131215025 -0.030251153 -0.015533712 0.0075289956
0000e0 29 f7 81 bc 31 14 42 3b d9 23 32 bb 10 86 99 bc
       -0.015864925 0.0029614086 -0.0027182011 -0.018740684
0000f0 52 fe c7 3b 76 c2 9b b9 3d dd 84 3d 32 8e ce bc
       0.0061033154 -0.00029708788 0.0648751 -0.025214288

sequential_2/conv2d_4/BiasAdd/ReadVariableOp f4 [64]
000000 04 c6 d2 bc 15 b7 b1 bc ad 82 30 bc aa 6c 0e bd
       -0.025729187 -0.021693746 -0.010773343 -0.0347716
000010 47 80 2c bd 24 35 32 bd cd ae 06 bc 86 aa 12 bd
       -0.042114522 -0.04350771 -0.008220387 -0.035807155
000020 8a 18 4b bc a7 07 db bc ba 96 c3 bc aa 80 dc 3c
       -0.012395987 -0.026737047 -0.023875583 0.02691682
000030 f3 f4 a6 bb 05 83 8d bc 91 42 43 bc 20 9a c8 bc
       -0.005095118 -0.017274389 -0.011917726 -0.024487555
000040 b4 ad 39 3d 2e 9b 7b bc bc 76 83 bc 44 f0 a6 3c
       0.04533167 -0.015356822 -0.016047828 0.02037824
000050 89 df f9 bb 19 24 01 3b 93 a5 27 bc de 58 a1 bc
       -0.0076255244 0.0019705354 -0.010232347 -0.019695695
000060 c3 b0 db 3c cd f7 9a bc 62 fd 8a 3d 82 ea bd 3c
       0.026817685 -0.018916989 0.0678661 0.023183111
000070 2e 83 d5 b9 fa 5e 1d bc 58 69 45 bb 05 dc ba bc
       -0.00040724262 -0.009605164 -0.0030122604 -0.022809992
000080 b8 24 f3 bc ac 60 c7 bc 6b b5 17 bd e9 c7 5a bb
       -0.029680595 -0.024338089 -0.037038248 -0.0033383316
000090 a9 88 eb 3b a3 c3 76 bb 54 f1 66 bb 0f c7 6f bc
       0.007187922 -0.003765323 -0.0035239058 -0.014634862
0000a0 55 3d 87 3b e5 75 ec bc 39 b2 7e bc ae 8e 18 bd
       0.0041271844 -0.02886481 -0.015545421 -0.037245445
0000b0 3f de d1 bc 45 0d c1 bc 9b 22 82 bb 64 94 1c 3b
       -0.02561867 -0.023565898 -0.0039714104 0.0023892159
0000c0 4d cb 6e 3c e1 34 40 bc 6b be 72 bc 3e 53 b7 bc
       0.014574838 -0.011731357 -0.014815907 -0.02237856
0000d0 69 53 d4 3c 88 46 b5 bb 29 13 c4 bc 3d 01 20 bc
       0.02591868 -0.0055320896 -0.023934918 -0.00976592
0000e0 2c 35 ae bc 91 c1 82 bc c7 ad 03 3d 42 2d b3 bb
       -0.021265589 -0.01596144 0.03214815 -0.0054680416
0000f0 4d 52 8c 3c bf af 95 bb 5a 9e 4e bc 85 a0 a6 bc
       0.017129088 -0.0045680697 -0.012610996 -0.020340214

sequential_2/conv2d_5/BiasAdd/ReadVariableOp f4 [64]
000000 f3 fe b5 3d a0 75 8d bc 3d 4e 00 3d c3 66 10 3d
       0.08886518 -0.017268002 0.031324614 0.03525425
000010 79 d5 fd 3a 67 6b f9 bb 0a ee 99 3c 29 64 8b 3c
       0.0019365988 -0.0076116803 0.018790264 0.017015534
000020 74 77 8b 3c 77 51 93 ba 5a f7 a0 bc a8 30 16 3a
       0.017024733 -0.0011239488 -0.019649196 0.0005729296
000030 fe ab ac bc 0f cd 40 bd 51 26 00 bd 4b 2a 3a bc
       -0.021078106 -0.04707056 -0.03128654 -0.0113626225
000040 4c 6e 85 bc af 43 69 bd e8 b7 a8 3d 4b b6 81 bc
       -0.016287945 -0.056949314 0.08238202 -0.015833994
000050 e5 ed 96 bb 95 31 10 3d f5 ab 82 bc 0c 2c 41 3d
       -0.004605996 0.035203535 -0.015951136 0.047161147
000060 44 c6 f2 bc 4d a2 97 3c a9 b0 fa bb 14 0d a5 bc
       -0.029635556 0.018510008 -0.007650454 -0.020147838
000070 7c 34 4c 3a 7e 16 0a 3d 83 b8 a0 bb 2d 2d 1a bc
       0.0007789803 0.033712856 -0.004904808 -0.009410185
000080 77 7c 82 bc 7e 0d b6 bb 08 79 fa bb 34 dc 56 bd
       -0.01592849 -0.0055558076 -0.0076438226 -0.052456096
000090 01 70 cf 3b c0 20 f8 bc 3c 50 f6 bb 1c d5 93 3c
       0.0063304906 -0.030289054 -0.007516889 0.018045954
0000a0 e3 97 ea bc df 49 18 bd 2b b8 68 bc 98 f6 c2 3b
       -0.028636878 -0.037179824 -0.014204065 0.0059498064
0000b0 bb 43 10 bd 72 f6 20 bc 4f d5 dd bb b0 78 51 bc
       -0.035220843 -0.009824382 -0.006769813 -0.012785122
0000c0 dc d7 87 3c 05 c1 06 bc 04 23 9e bc 68 8b 0b bc
       0.016582422 -0.00822473 -0.019303806 -0.008517124
0000d0 a1 c0 8c 3d 68 e7 10 3d e7 28 ec 3b 44 ed 3b bd
       0.068726785 0.035376936 0.0072070244 -0.04588057
0000e0 71 79 8f bc 1a cb cf 3c b8 05 8d bc 65 ee 2c 3b
       -0.017513962 0.025365401 -0.017214641 0.0026387211
0000f0 c2 26 92 3c 5e 43 22 3c 1e c2 b9 3d 2f c5 ff 3b
       0.017840747 0.009903757 0.09070228 0.0078054885

sequential_2/conv2d_1/Conv2D f4 [64, 3, 3, 32]
000000 e5 0b 42 3a d4 4f de ba 8e 1e 9b 3c 2c 4d 66 3c
       0.0007402285 -0.0016961046 0.018935468 0.014056485
000010 7a b2 30 be d4 0b 60 be 00 9e 54 bd 78 40 89 3d
       -0.17255583 -0.21879512 -0.051908493 0.067017496
000020 e7 e9 72 bd 38 ba 2b 3d f2 13 c6 bd 96 55 24 3d
       -0.059305098 0.04192564 -0.09671773 0.040120684
000030 41 10 41 bd bd ae 5a bd 9d 10 b5 bd 5b 96 34 3c
       -0.04713464 -0.0533893 -0.08841059 0.011022176
000040 a1 ec 2c bd 2d 9b b7 bd b4 49 89 3c 09 ad b0 bc
       -0.042217854 -0.08965144 0.016758777 -0.021566885
000050 72 cb 69 bd 1f ba dc bd 47 29 bc bd 5d 8f c1 bc
       -0.057078786 -0.10777687 -0.091875605 -0.023627931
000060 8e f9 97 bc 67 6f 13 bd d5 f4 0f bc a9 46 94 bd
       -0.018551614 -0.035994913 -0.0087864 -0.0724004
000070 db 6d 1c be 1c cc 08 bd 02 49 7a 3c 73 c4 37 be
       -0.15276282 -0.03339778 0.0152761955 -0.17946033
000080 4f e5 0a bd f8 4e 42 3d d1 84 b1 bc 44 98 8d bd
       -0.033910092 0.04743859 -0.021669777 -0.06913808
000090 ea 3f b4 bd fb af a3 bd 25 a2 11 3d f2 9e 21 3d
       -0.08801253 -0.0799255 0.035555024 0.039458223
0000a0 33 a2 df bd e5 05 0d 3c c6 75 c9 bd 31 1d 50 3c
       -0.10919609 0.008607362 -0.098369166 0.012702272
0000b0 8e 89 65 bc 81 d4 54 bd a7 46 c2 bc 91 d0 31 3d
       -0.014009846 -0.051960472 -0.02371533 0.043411795
0000c0 67 8f 20 bd f6 f8 69 3c 26 49 2d 3d 5d 10 9c bd
       -0.03919926 0.014280548 0.042306088 -0.076203085
0000d0 e5 6a 72 3a d6 3c 33 3c 29 8c 8b bc 36 c6 38 bd
       0.0009247496 0.010939797 -0.017034607 -0.045110904
0000e0 38 42 60 bd c8 63 ed bc 0e d9 85 3d 92 fd 2f 3d
       -0.05475065 -0.028978243 0.065355405 0.042966433
0000f0 21 a3 b0 bd 63 5a 17 bd 1b be 1b bd 8c 8e 38 be
       -0.08624864 -0.036951434 -0.038023096 -0.18023127
000100 e3 f4 2a bd cc bd 54 bd 43 dd e5 bc 2e 23 00 3c
       -0.04173745 -0.051938817 -0.028059607 0.0078208875
000110 79 87 5b be 81 6d da bd 15 6f 61 3b 9f 79 6d 3d
       -0.21438397 -0.106654175 0.0034398485 0.057977315
000120 94 47 43 3d a8 d2 a0 3d 8a d9 4a bd 98 8e ad 3c
       0.047675684 0.078526795 -0.049523868 0.021186158
000130 2f c1 02 be 0d 84 6c 3d ae 44 d3 bd 59 b3 11 3b
       -0.12769006 0.05774312 -0.10315834 0.0022232144
000140 1e e9 4e 3d c1 0e 7a bc c6 c0 05 3d fb 5a 8e bd
       0.050515287 -0.015262307 0.032654546 -0.06950947
000150 18 d7 58 bd fc 6c d4 bc 5a 47 e4 3c 6f 47 a1 3d
       -0.052939504 -0.025930874 0.027866054 0.07874953
000160 7e fb e5 bc 18 cc 28 ba 47 bf 83 3c 9f 8d 8c bb
       -0.028074022 -0.0006439104 0.01608242 -0.0042893435
000170 22 f6 bb bd 32 ee 58 bd cb 33 40 3c 9e cd 4c be
       -0.091778055 -0.052961536 0.011731098 -0.20000312
000180 c1 eb c2 3c bc 23 be 3c d2 e4 5d bb 00 21 fc bc
       0.023794057 0.023210399 -0.0033858311 -0.030777454
000190 42 9c aa bd ad e9 cd bd dd 87 b1 bd d4 cc 19 3d
       -0.08330585 -0.10054336 -0.08668492 0.037548855
0001a0 80 ac 28 3d 6a 66 a7 bd db 9a 04 bd 26 6d 22 bc
       0.041180134 -0.08173831 -0.032374244 -0.009913718
0001b0 e2 63 16 3d ac e4 09 bd 88 3e 89 3d 8a 0f 2a bd
       0.03671635 -0.033665344 0.0670138 -0.041518725
0001c0 76 aa 70 bd c8 70 48 bd f0 88 60 bd c1 dd d7 bd
       -0.058756314 -0.04893568 -0.054818094 -0.10540343
0001d0 8d bf 92 bd cb 96 71 bd c1 26 a6 bd 16 10 76 bc
       -0.07165442 -0.058981698 -0.081128605 -0.015018484
0001e0 27 80 48 3c 2b 49 7c 3d 7d 6f 08 bd 36 54 9a 3d
       0.012237585 0.061593216 -0.03330945 0.07535593
0001f0 21 9d 11 be 12 fa b2 bd ee f4 47 3d c4 06 2f bd
       -0.14220096 -0.087391034 0.048817568 -0.04273106
000200 d8 51 cf 3c 13 e3 94 bc a8 60 1b 3c a2 12 eb bd
       0.02530758 -0.018174684 0.009483494 -0.11478163
000210 6a e7 e6 bd 0d 50 19 be d1 51 52 bd d2 88 f0 3c
       -0.112746075 -0.14971943 -0.051347557 0.029362116
000220 4d e5 ae bd a0 a1 a0 3a 63 63 c6 bd 9f 8c 54 3d
       -0.085398294 0.0012255199 -0.09686925 0.05189192
000230 d3 cb 55 3c 60 89 55 3b 6c 74 67 bc bc 5b 1d 3c
       0.013049084 0.0032583103 -0.014126878 0.009604391
000240 ed b1 8e bd 08 64 3b 3c 3b 6a 56 bd 46 7e 2c be
       -0.069675304 0.0114374235 -0.052347403 -0.16845044
000250 91 47 04 be aa 2a bf bd 4a be 22 3d 64 18 42 3d
       -0.12917925 -0.093343094 0.039732255 0.047386542
000260 e9 b0 10 be 6e 0f e3 3c 16 80 ed 3b 76 bf 59 3d
       -0.14129986 0.027717318 0.007247935 0.053161107
000270 c1 28 9f bd 41 6e ae bd 4f b1 1e bb 10 13 cc bd
       -0.07771445 -0.08517123 -0.002421457 -0.099645734
000280 a2 45 a7 bc 94 7a 2f 3c f4 28 cb bd 4e fc 0d bc
       -0.020418946 0.010710377 -0.099199206 -0.008666111
000290 36 9d 1b be 01 07 0b be d5 6b 3e bb 96 f3 9b bd
       -0.1519669 -0.1357689 -0.0029055972 -0.0761482
0002a0 c9 d1 85 bc fa 5c cc bb ac b4 ba bd cd 3f b7 bd
       -0.016335385 -0.0062366696 -0.09116492 -0.08947716
0002b0 80 a2 5b 3d fc cb 4d 3d 80 28 83 3d b1 5b 22 bd
       0.05362177 0.050243363 0.06404209 -0.039638225
0002c0 77 db 3f bd d3 aa 28 bd 28 59 4f 3c fb c4 c1 bc
       -0.046840157 -0.041178536 0.012655534 -0.023653498
0002d0 39 92 10 be 9a 6e 85 bd 8d 2b f9 bc 7e cb 00 3e
       -0.1411828 -0.06515236 -0.030416274 0.12577626
0002e0 00 ad ac bc 69 88 b8 3d d7 4f 59 bc 17 fa ac bd
       -0.021078587 0.09010393 -0.013263664 -0.08446138
0002f0 ed 90 29 bd b8 7d 76 3c 67 a7 2a bc 66 8a dd bd
       -0.041397978 0.015044622 -0.010415888 -0.10817413
000300 2f 80 7e 3c 0e 00 e8 3d b3 1b b0 3c cb f3 60 bd
       0.015533491 0.113281354 0.021497583 -0.05492
000310 d5 89 d7 bd 4b 5d fb b9 73 5d a4 3a 09 b9 85 bc
       -0.10524336 -0.0004794396 0.0012540057 -0.016323583
000320 a5 9b 02 3d 47 62 35 bc 6f 39 21 bd 16 8b ed 3c
       0.031886715 -0.011070794 -0.039361414 0.028996985
000330 b8 2e dc 3c d7 30 af 3c 05 81 a3 3d 70 28 87 3d
       0.026877746 0.021385593 0.07983593 0.0659951
000340 e8 6f ac bd 7e bd 86 bd 60 8c 30 bd e0 ef 0b be
       -0.08419782 -0.065791115 -0.043102622 -0.13665724
000350 b1 15 00 be d3 34 b4 bc 0a 03 51 bd 87 3b 15 bd
       -0.12508275 -0.021997845 -0.05102829 -0.036433723
000360 08 8c 9e 3c 07 b7 a1 3c 4a 7d 7f bd f9 84 bb 3c
       0.019353881 0.019740595 -0.062375344 0.022890555
000370 9b 81 1c bd 10 bd 92 bd c7 00 6c 3d 58 dd 0e be
       -0.03820954 -0.07164967 0.05761793 -0.13951623
000380 ee e7 72 3d 85 f6 8a 3d 7e 2c a7 3b 74 4f 1d bd
       0.059303217 0.06785301 0.0051017394 -0.03840585
000390 cf 15 d2 bc ac f2 0a 3c f8 e3 71 bd 27 2d 84 3d
       -0.025645165 0.008480709 -0.0590553 0.064539246
0003a0 72 9d f4 3c 94 ea b4 3d 64 b7 1f bd 0a dc 1f 3d
       0.029860232 0.08833805 -0.038993254 0.039028205
0003b0 2d ec 76 bc 1e 2c bf bd 5e 30 9d bd 6a 32 98 3c
       -0.015070957 -0.093345866 -0.07675241 0.018578727
0003c0 ee f2 af bd 95 95 31 bd 16 53 02 3d 8d 44 a9 bc
       -0.08591257 -0.043355543 0.03181752 -0.02066257
0003d0 8a fe c2 bc de 78 9a bc ba 80 db bd 99 b6 2b 3d
       -0.023803014 -0.018856462 -0.10717912 0.041922186
0003e0 43 17 aa bd d3 ca 85 3d 2e a7 96 bb 30 4d 71 3d
       -0.08305218 0.06532826 -0.004597566 0.058911502
0003f0 8a e7 91 bc 00 13 55 3d b0 51 c9 3d 3b cc 33 bd
       -0.017810602 0.052020073 0.09830034 -0.04389594

sequential_2/conv2d_2/Conv2D f4 [64, 3, 3, 64]
000000 97 50 b9 3d b2 5c 66 3b df b6 8f bc c1 d8 bc bc
       0.090485744 0.0035150466 -0.017543254 -0.023052575
000010 06 53 83 bd cb be 77 3d 43 29 4b 3c af 01 85 3a
       -0.0641232 0.06048469 0.012399974 0.0010147596
000020 3d ab 20 3c 50 38 35 bc 44 83 1f 3d 51 03 3c 3d
       0.009806451 -0.011060789 0.038943544 0.0459016
000030 2e bd 23 bd d5 03 d0 bc 96 34 14 be d9 dd 10 be
       -0.039975338 -0.025392452 -0.14473185 -0.14147128
000040 4b 91 1d 3d c4 19 61 3d 00 83 de bd 32 44 de 3c
       0.03846864 0.054956213 -0.1086483 0.027132127
000050 f0 cd 07 3c de 6c 8b bd f8 79 f0 bc 31 20 68 bd
       0.008288845 -0.06807874 -0.029355034 -0.056671325
000060 57 cd 28 3b 67 8e 77 bd df e0 1a bd e2 12 83 3c
       0.0025757158 -0.06043854 -0.03781211 0.016000215
000070 63 6b 3a bd ff 2a cf bd 81 fd 6f bd 41 f5 b2 bc
       -0.04551257 -0.10115623 -0.05859137 -0.021845462
000080 5f 46 80 bd 11 6d 4f bd 5a 10 24 bd 45 24 b2 3b
       -0.06263422 -0.050641123 -0.040054657 0.0054364526
000090 fb c0 6d bd 79 37 f5 3c 3e f7 b4 bd 5c 21 f3 bd
       -0.05804537 0.029933678 -0.0883622 -0.11871597
0000a0 57 e6 01 3d 3a 1e f7 bd 60 7c 47 3c d1 5f 4f 3e
       0.03171381 -0.12066312 0.012175649 0.20251395
0000b0 14 b1 07 3d 21 07 04 3c 14 09 7f 3d 9e 7b 85 3d
       0.03312786 0.00805834 0.062264517 0.06517719
0000c0 35 aa 11 3b 85 94 ce bc 89 86 db bc f0 3f 00 bd
       0.0022226695 -0.025217304 -0.02679755 -0.031310976
0000d0 2e 7f 5f bd 58 05 6b bd 2a ee 89 3d e6 ec ae bc
       -0.054564647 -0.057378143 0.06734879 -0.021353196
0000e0 19 4f 3c bd 0f 3a 8a bd e9 14 4b bb 53 0b 46 bc
       -0.04597387 -0.06749355 -0.0030987805 -0.012087661
0000f0 fb 52 89 bc 3c 08 4f bd f7 ea e3 bd 0d 0c 92 bd
       -0.016763201 -0.050544962 -0.111288 -0.07131205
000100 84 7f 07 3e 9d 10 82 bc ad 7b 73 bd 68 b1 3a bd
       0.13232237 -0.015877062 -0.05944412 -0.045579344
000110 fd d6 96 bd 2e 69 44 3d 65 de 80 bc 47 f8 74 bd
       -0.073652245 0.04795187 -0.015731046 -0.05980709
000120 fe 53 28 bc 53 49 e3 bd 45 54 5d 3d 45 e7 e4 bc
       -0.010273932 -0.1109797 0.054035444 -0.02794231
000130 f1 d9 e4 bd c6 15 49 3d 5c a2 27 be 59 ff a3 bc
       -0.111743815 0.04909303 -0.16370529 -0.02001922
000140 2f 42 10 3d 71 84 22 bd 0b 55 b8 bd 3b 9f 38 3c
       0.035219368 -0.039677087 -0.09000596 0.011268432
000150 7c 15 f4 bd e7 71 01 3c 3c 4a cb bb c9 7f 8c bd
       -0.1191816 0.007900692 -0.006203918 -0.068603106
000160 a3 a3 a4 bb 9c 52 a2 3c 16 b4 64 bd 98 1b 80 bc
       -0.00502439 0.019814782 -0.055835806 -0.015638158
000170 09 fc ae 3b 9d 1c 11 be d6 1a f8 bd 0e c6 4b bb
       0.0053401035 -0.14171071 -0.121144935 -0.0031093392
000180 2e f4 e7 3c 0a f8 4b bc 56 d7 23 bd 8b e6 7d bd
       0.028314676 -0.012449274 -0.040000282 -0.06198744
000190 e7 fb 8b bd 2b 59 8c 3d 2b a1 fa bd 10 c7 99 bd
       -0.06835156 0.06852945 -0.122377716 -0.07508671
0001a0 b9 a0 38 bd f5 35 03 be 4a 28 7f bc f8 0c 5c 3e
       -0.045075152 -0.12813552 -0.0155735705 0.21489322
0001b0 b6 2f 0e be 09 2a 9e bc 2c 67 38 bb 49 7a 3a bc
       -0.13885388 -0.019307153 -0.0028137667 -0.011381694
0001c0 b7 c0 8b 3d 30 8d 9c bc 9b f3 b3 bd 66 00 22 bd
       0.06823867 -0.019110292 -0.087866984 -0.03955116
0001d0 44 2b 1c bd 14 ff 8a bd 19 72 03 bd 20 44 ac bc
       -0.0381272 -0.067869335 -0.032091234 -0.021028578
0001e0 37 5e 06 be 3b fc 72 3d fd 05 98 3d 9b 3d 0d bd
       -0.13121878 0.059322577 0.07423017 -0.03448258
0001f0 d5 4a d8 3a 10 c5 96 bd 79 a5 fb bd 95 12 91 3b
       0.0016501794 -0.073618054 -0.12287421 0.004427264
000200 f5 4f c8 3d 4e 4f f3 bb 33 26 f4 bd 76 d5 ad bb
       0.097808756 -0.0074252253 -0.119213484 -0.0053049875
000210 2c 5e e2 bc 9a 50 ce 3d a6 a6 5f bd a8 43 9b 38
       -0.027632795 0.10073967 -0.054602288 7.403578e-05
000220 d9 f4 27 bc a2 79 ad bd 99 cf b5 3c 14 67 27 bd
       -0.010251247 -0.08470465 0.022193717 -0.040869787
000230 d7 6e 1a bd e3 fd 3c bd 3e 0d fd bc 62 40 28 bd
       -0.03770336 -0.046140563 -0.030890103 -0.041077025
000240 ed f5 3d bd f7 b5 ee bd a7 79 97 bd ce 0e e9 bd
       -0.04637711 -0.11655801 -0.0739625 -0.11379777
000250 c4 52 84 bd ed 38 ce bd fa 0d 0b 3d 37 36 77 bd
       -0.06461099 -0.100694515 0.033948876 -0.060354438
000260 b0 8f 36 bc f7 71 b5 3c 71 54 20 3d b5 4d 9c bb
       -0.011142656 0.02214907 0.03914303 -0.0047700056
000270 a7 57 ac bc 5a ad 94 bd 53 aa 02 be f2 5c 45 3c
       -0.02103789 -0.07259627 -0.12760286 0.012046086
000280 d6 66 9a bc 77 9c 19 3d b0 07 bf bc 45 31 52 bc
       -0.018847864 0.037502732 -0.023319095 -0.01282913
000290 e2 5c 4b 3c 70 7c 03 3e e1 26 b0 bd 4c cc 6d bd
       0.012412282 0.12840438 -0.086011656 -0.05805616
0002a0 65 d1 59 bd 97 23 04 be c7 c8 b5 3b 5c 51 98 3e
       -0.05317821 -0.12904201 0.005547616 0.29749572
0002b0 aa 48 11 be 28 27 c6 bd be 38 20 3d 2e 94 3f bd
       -0.14187875 -0.09675437 0.039116614 -0.046772175
0002c0 3f 69 91 bc 93 0a aa bd 64 9b 2e bd 2c 02 90 bc
       -0.01775038 -0.08302798 -0.04262866 -0.01757916
0002d0 37 51 23 bd 04 d2 61 bd 8d 82 b2 bc b7 e4 e1 ba
       -0.039872374 -0.055131927 -0.021790767 -0.00172343
0002e0 fe ff 9b bd aa e2 4f 3d ae 0f 09 bd ee 21 88 3c
       -0.07617186 0.050753273 -0.03346222 0.016617741
0002f0 3d ad f0 bc 70 f6 c2 bd 66 96 d0 bd 4b bc e3 3c
       -0.029379481 -0.095196605 -0.10184936 0.027799746
000300 cd 6c c6 3d fb a0 b6 3c 90 e2 e8 bd 18 ff e3 bc
       0.09688721 0.022293558 -0.11371338 -0.0278316
000310 eb 18 89 ba 76 2b b6 3d f8 9d 99 3b 2e 44 d5 bd
       -0.0010459697 0.08895008 0.004688021 -0.10413395
000320 90 88 2e bd 00 da e7 3c a0 70 73 3d 33 1d 2e 3b
       -0.042610705 0.028302193 0.05943358 0.0026567697
000330 64 c6 23 bc 9e 53 91 3d b2 86 c3 bd 13 7c 07 bd
       -0.0099960305 0.07096027 -0.095471755 -0.03307731
000340 80 63 c0 bc 7e 08 a8 3d 8e 1f a3 bd a8 f4 08 bc
       -0.023484945 0.08204745 -0.07965003 -0.008359112
000350 a2 25 09 bd 7f a2 f6 bd 4d 1c cd bc 35 9d f6 bc
       -0.033483155 -0.120427124 -0.025037909 -0.030104259
000360 41 bc a0 3c ac 6a 99 bd f4 f9 16 3d 1f 15 10 3d
       0.019621016 -0.07491049 0.036859468 0.035176393
000370 cc 5a 09 3d 8a e8 e7 bc 32 63 02 bd 14 5f 3f 3d
       0.033533856 -0.028309125 -0.03183288 0.046721533
000380 7f 64 d1 3c b0 52 24 bd 8a eb d7 bb dd 1e 1d bd
       0.025560616 -0.04011792 -0.0065893577 -0.03835951
000390 d2 99 af bd cb 84 42 3d b3 d4 7e bd bf 62 3f bd
       -0.08574261 0.047489922 -0.062214565 -0.04672503
0003a0 f6 37 d4 ba d4 0b bb bd fe 2c 06 bc 6c 34 29 3e
       -0.0016190994 -0.091331154 -0.008189438 0.16523904
0003b0 90 f5 f0 bc 2f 55 4c 3d 60 29 6b bc cf fa 7a bc
       -0.029413968 0.049885925 -0.014353126 -0.0153185865
0003c0 e7 62 73 3d 31 53 d8 bb b3 10 2e bd fc 65 9e bd
       0.059420493 -0.006601714 -0.042496394 -0.07734296
0003d0 15 c0 46 3d 29 1a fa bd 33 60 aa bb 17 99 ef bd
       0.048523027 -0.12212021 -0.005199456 -0.116991214
0003e0 9f a7 6f bd 0f 8f 67 bd 9a 95 9a 3d 1e fe 1a 3d
       -0.058509465 -0.056532916 0.075480655 0.03784
0003f0 2f 6a 9d 3d 02 17 f7 bd 07 8a aa bd da 42 d5 3b
       0.076862685 -0.12064935 -0.08327108 0.0065082135

sequential_2/conv2d_3/Conv2D f4 [64, 3, 3, 64]
000000 6e 71 11 bd 14 2e 90 bd a6 82 51 bd 79 9f 49 3d
       -0.035508566 -0.07040039 -0.051149987 0.04922435
000010 a4 69 68 bd 0c 72 fb bb f8 91 2c 3d 11 3c 8b bb
       -0.05674137 -0.0076735076 0.042131394 -0.004249104
000020 81 50 42 bd 9b d8 7b bd 73 65 09 bd 8f 52 a2 bd
       -0.047440056 -0.061485868 -0.033544015 -0.07925903
000030 2e 87 3d bb ee 96 0f 3d da c9 f4 3c 5a 7c 4d 3c
       -0.0028919685 0.035056047 0.029881407 0.012541855
000040 cc 96 29 3d bc 76 bf bd 9a e0 4f bd 98 3d 3a bd
       0.041403577 -0.09348819 -0.050751306 -0.045468897
000050 6a ab 21 3d ad b8 a9 bd 88 e3 59 bd 36 55 83 bd
       0.039470114 -0.08287177 -0.053195506 -0.06412737
000060 d0 d3 18 3c 48 7a f5 3c 92 b9 9c bd 90 c5 43 3c
       0.009327844 0.029965535 -0.07652582 0.011948958
000070 05 8e d7 bc 42 ed df 3c 9b 35 4b 3c 0b 7b 44 3d
       -0.026312837 0.027334813 0.012402917 0.047968905
000080 2e 91 1f 3d 62 d4 4e bd 50 be f6 3c 94 4a bc bc
       0.038956814 -0.050495513 0.030120045 -0.02298478
000090 c4 79 8a bc be a6 7c 3c 3a 78 79 bb 62 01 2e bd
       -0.016903765 0.015420614 -0.0038066045 -0.042481788
0000a0 5c 26 2f 3d b0 e8 bb bb ea 7e 2d 3d 5e f2 bd 3c
       0.04276119 -0.0057345256 0.042357363 0.023186859
0000b0 48 82 c1 3c e0 26 b6 bc 6e ea a6 3c c3 60 08 bb
       0.023621693 -0.022235334 0.020375457 -0.0020809628
0000c0 ba f3 fc 3c 1b a4 a5 bc 93 d7 9f bd a8 76 87 bd
       0.030877937 -0.020219853 -0.078047894 -0.06614429
0000d0 58 5e 60 bc 3e cb 8b bb 74 d4 8b 3b fb 9c 3a bd
       -0.013694368 -0.0042661717 0.0042672697 -0.045559864
0000e0 78 54 d2 bc a3 3b 64 3d 1b c2 f6 3a 6d 93 c0 bc
       -0.025675043 0.055720937 0.0018826158 -0.023507798
0000f0 0f 07 56 bd 5d 54 1a bd 35 8f 08 bc 08 fa 17 bd
       -0.052252825 -0.03767811 -0.0083349245 -0.037103683
000100 b3 45 28 3d dd 7e b1 3b 5f f7 33 3c 70 22 6d bd
       0.041082095 0.0054167346 0.010984271 -0.05789417
000110 5f f4 5b 3d ec 0b cc 3c ea 85 56 bd db 54 0e bd
       0.053699847 0.024908029 -0.052373804 -0.034748893
000120 f5 36 d2 bc bf be 7b bc 28 f3 9e bd f3 f4 55 bd
       -0.025660971 -0.015365302 -0.07761222 -0.052235555
000130 71 c5 82 3d ce a3 b5 3c 93 fd a3 bb fb fb ae bd
       0.06385315 0.022172835 -0.0050045936 -0.08544155
000140 30 14 0d bb 0d 73 86 bc dc 8b 4b 3a 8d ee 15 bd
       -0.0021526925 -0.016412282 0.0007764676 -0.036604453
000150 6f ba ef 3c 00 b1 9e bd ab 14 34 3c 17 a9 93 bc
       0.029263703 -0.07748604 0.010991256 -0.018024964
000160 f3 d3 05 bd 6a d2 05 bd 70 41 db 3c e0 36 48 bb
       -0.032672834 -0.03267137 0.026764601 -0.0030550286
000170 da e1 6f bc fc 6e 30 3d 0d 4f 13 bd 31 37 71 3c
       -0.01464125 0.043074593 -0.03596406 0.014722631
000180 bd 09 36 3d 20 b5 c3 3c 98 56 2a 3d 30 34 54 3d
       0.04444288 0.023890078 0.04158649 0.051807582
000190 aa ae 27 3d c8 53 0d 3c 1e 2a 94 3c 52 0f a8 3c
       0.040938057 0.008625932 0.01808649 0.020515118
0001a0 97 80 27 3d c2 67 2b 3d 93 8a 32 3d 5d 44 35 3c
       0.040894117 0.041846998 0.043589186 0.011063662
0001b0 cc eb 79 3d 02 e3 ba bd 0e 7b ae bd fa 7c 65 3d
       0.06101589 -0.091253296 -0.085195646 0.05602739
0001c0 27 cc 81 3d 9a 87 0a bd 53 3f 05 3b dd 76 a3 3b
       0.06337767 -0.033820726 0.0020331934 0.004988535
0001d0 3e 7b c9 bc 05 d2 63 bd 9b aa 4e bd eb 3b 81 3c
       -0.0245949 -0.055620212 -0.05045567 0.015775641
0001e0 25 07 7e 3d 49 4b 8f bd d6 e3 f1 3c 19 81 7f bd
       0.062018532 -0.069967814 0.029527586 -0.062378976
0001f0 16 df e4 bc 3b 1d 18 3d 07 68 59 3d f2 6d b2 3a
       -0.027938407 0.03713725 0.053077724 0.0013613089
000200 d3 10 dd 3a e8 76 18 bc 30 22 47 3c 6a 4a f4 bc
       0.0016865976 -0.009305693 0.012154147 -0.02982064
000210 e5 9e 09 3d 20 6a a7 3c d2 3e 2c bd 1c 5f f8 3c
       0.0335988 0.020436347 -0.042052098 0.03031879
000220 28 47 01 3c 09 58 e2 3c b8 4d f4 3c 37 d5 16 bd
       0.0078905 0.027629869 0.029822215 -0.03682443
000230 6f ff a6 bd 93 91 3a 3d 1c e2 ab bc e2 d4 2c bc
       -0.08154189 0.045548987 -0.02098184 -0.010548802
000240 31 9d 33 3d 96 6d b8 bc 9c 3c 1b bd aa 0f 97 bc
       0.04385108 -0.022513192 -0.0378996 -0.018440086
000250 f6 26 95 3c 87 3a 75 bd 32 3c 30 bd 82 95 3e 3d
       0.018207055 -0.05987027 -0.043026157 0.0465293
000260 15 c4 60 bd d6 ab 92 3d db 01 c3 3c 7a a7 f5 bc
       -0.0548745 0.07161681 0.023804596 -0.029987086
000270 01 3e 66 bb ae 00 8e bb d8 a0 31 3c 15 c0 12 bd
       -0.0035132172 -0.004333577 0.010841571 -0.035827715
000280 01 9b 52 bd 4e c4 92 3d 3a 3c 40 bd 9f 5b 96 bd
       -0.051417354 0.071663484 -0.046932437 -0.07341694
000290 c3 b8 b9 ba 8f 86 d2 3c c7 b8 78 bd 85 18 77 bd
       -0.0014169443 0.025698928 -0.060723092 -0.060326118
0002a0 4f 5c d5 bc 98 b8 d9 3c 49 3f eb 3c 04 52 5f bd
       -0.026044993 0.026577279 0.0287167 -0.054521576
0002b0 a4 ce 58 bd 20 19 09 3d 5e b2 80 bd 16 33 5e bd
       -0.052931443 0.033471227 -0.06284021 -0.054247938
0002c0 9b f7 0b 3d 3a f8 7c bd df 02 99 bd db 0a d0 bc
       0.03417168 -0.061760165 -0.07471251 -0.025395801
0002d0 67 cc 22 bd 3c ed 34 bd 13 0d aa bc 71 74 61 bd
       -0.039745715 -0.044171557 -0.020758187 -0.055042688
0002e0 f0 56 80 bc 4a 83 8f 3a 6b fe 19 bd c8 11 81 3b
       -0.015666455 0.0010949161 -0.037596148 0.0039388873
0002f0 85 f0 a0 bd a3 bc 86 3d a0 72 51 bd 22 26 5f 3d
       -0.078583755 0.06578948 -0.051134706 0.054479726
000300 14 48 82 bd b3 a9 7b bd bc c1 28 3d 49 d2 77 bc
       -0.06361404 -0.061441135 0.041200384 -0.0151258195
000310 cb e6 0c bd 5f 64 c5 3c e3 77 c0 bc c4 75 ef bc
       -0.03439979 0.024095712 -0.023494666 -0.02923096
000320 f7 bf 97 bd 6f 44 94 bc 7f c5 2e 3d 7a da 86 bd
       -0.07409661 -0.018099038 0.042668816 -0.0658464
000330 df 44 b3 bc bb 32 4f 3c b1 2c 86 bd c7 fc 81 bd
       -0.021883426 0.012646372 -0.06551493 -0.063470416
000340 bc ee aa bc c2 48 8b bb 1f ef 1e 3d 00 ef 2c 3a
       -0.02086579 -0.0042506168 0.038802262 0.0006596893
000350 23 54 98 bc 4d f8 26 bd 5e 50 6c bd 13 98 da 3c
       -0.018594807 -0.04076414 -0.05769383 0.026683843
000360 e8 c3 a1 3b 50 9e 8c bd 28 61 35 3d e0 43 04 3d
       0.004936684 -0.06866133 0.04428211 0.032291293
000370 d2 eb 31 bd 8e ff 5d 3d 5d 7c b8 bb 63 f4 02 bd
       -0.043437786 0.054198794 -0.0056300596 -0.031971347
000380 a5 75 99 ba ab 00 2c 3d 5b 53 9c 3c c6 53 67 bd
       -0.0011708034 0.041992825 0.019082716 -0.056476377
000390 96 7c 31 bd e8 23 e3 3c 7c 2f 86 bc 28 07 39 bd
       -0.043331705 0.027727082 -0.016380064 -0.04517284
0003a0 92 92 ec bc 7a 16 fc 3c 28 e5 66 bd a5 80 8e bd
       -0.028878484 0.030772436 -0.056370884 -0.06958131
0003b0 6d e6 b4 bc 5c 6a 04 bd b8 a4 d9 3c 10 a0 23 bd
       -0.022082532 -0.032327995 0.026567802 -0.03994757
0003c0 1d 92 18 bd 5b e9 90 bd be 62 56 3d 8c 45 0f bd
       -0.03724872 -0.07075759 0.05234026 -0.034978434
0003d0 a3 9b 51 bc f1 ee 17 3d ce e1 74 3d 80 c8 1b 3d
       -0.012793454 0.037093107 0.059785657 0.03803301
0003e0 ff 46 86 bd d7 78 91 bc ef e3 b9 bc 49 bb 11 3d
       -0.0655651 -0.017757816 -0.022691695 0.035579
0003f0 fe 95 a0 3c 46 40 24 bd 05 95 3e bd 1d 79 81 bd
       0.019602772 -0.04010036 -0.046528835 -0.06321929

sequential_2/conv2d_4/Conv2D f4 [64, 3, 3, 64]
000000 9c bd ec 3c b1 71 aa bd 8d 1c 55 bd 12 96 85 bd
       0.028899007 -0.08322466 -0.05202918 -0.06522764
000010 e9 95 3b bd 1f 01 53 ba 80 4b 00 3c 1d 13 96 3b
       -0.045797262 -0.0008049178 0.007830501 0.004579915
000020 32 95 14 bb 35 bb a2 3c 9f fd 77 3d 03 0b 4d 3d
       -0.0022671935 0.019864658 0.060544606 0.05005933
000030 fd 16 fc 3c 10 07 3f 3c 55 4f 35 bd de d0 12 3d
       0.03077268 0.011659399 -0.04426511 0.035843723
000040 3c 55 07 3d 20 31 31 bc 0e e8 43 bd 48 35 f5 bb
       0.03304027 -0.010814935 -0.047828726 -0.0074831583
000050 73 08 6e 3c 87 c9 bd 3c c9 17 20 bd 8b 69 7f 3a
       0.014528382 0.023167385 -0.039085183 0.0009743205
000060 c3 1d b6 3c c1 42 4e bc a8 a5 e6 3b e5 00 16 3d
       0.022230988 -0.012589158 0.0070387907 0.036621947
000070 63 d8 63 bc 50 bf 0f bd 2c 1c 8d bd 48 66 ca bc
       -0.013906571 -0.03509456 -0.06890139 -0.024706975
000080 98 4a da bc 5c 62 48 3b b0 02 55 3d 22 d1 3c 3b
       -0.026646897 0.0030576205 0.052004516 0.0028811176
000090 58 88 5f bc 7f 97 87 bd 84 5e 6e 3d 5e 10 31 3d
       -0.013643347 -0.066206925 0.058195606 0.0432285
0000a0 76 46 9d bd 02 af af bd 54 b6 8a bc 8d 3b db 3c
       -0.07679455 -0.08578302 -0.016932644 0.026761794
0000b0 23 c0 3c bd d6 7b 7f bd e3 fd 3b bd f8 a8 14 bc
       -0.046081673 -0.06237396 -0.045896422 -0.009073488
0000c0 0f 23 49 bd 04 e9 82 bd e7 11 52 bd 94 3d b8 3c
       -0.0491057 -0.063921005 -0.051286604 0.0224903
0000d0 6b ad 29 bd 19 77 1a bc 49 59 96 3b 15 6a 02 bd
       -0.04142515 -0.009427809 0.0045882803 -0.03183945
0000e0 10 87 c4 bc 4e 54 12 3d 2f 6c 30 3c 80 c6 db 3c
       -0.023990184 0.03572493 0.0107679805 0.02682805
0000f0 10 51 9d 3c 2b 02 50 3d 9e 44 48 3d 7a d6 a2 bc
       0.019203693 0.050783318 0.048893563 -0.019877661
000100 a6 da f5 bc e7 73 11 bd fc 26 5f bd 29 e6 d0 bd
       -0.030011486 -0.035510924 -0.054480538 -0.102001496
000110 a0 e3 9a bd fc 6a 9f bc b3 15 c0 3b 68 d8 a7 bd
       -0.07562947 -0.019460194 0.0058619617 -0.08195573
000120 3e 0c 46 3c a7 43 45 3c a9 b7 90 bc d9 c7 45 bd
       0.01208788 0.012040055 -0.017665701 -0.048286293
000130 d5 91 e4 bc a7 9d 98 bd 2d 2d 44 bd d1 93 92 ba
       -0.02790157 -0.07451945 -0.047894645 -0.0011182969
000140 fe 1f d3 bb a1 9d 5b bd bb 16 b7 3c 6e ce 47 bd
       -0.0064430228 -0.053617124 0.022349706 -0.04878085
000150 5b a3 85 bd 69 b0 4d bd ca c4 83 3d 21 20 31 bd
       -0.06525298 -0.050217066 0.06434019 -0.04324353
000160 63 3d 4c 3c 8b 3f a8 bd d4 c7 62 bd 62 4b 4d 3c
       0.012465808 -0.08215245 -0.055366352 0.01253018
000170 a3 ac 39 bd 6f d9 f1 bc 1a 24 57 3d 34 e5 3b 3d
       -0.045330655 -0.029522626 0.052524664 0.045872882
000180 d4 39 82 bc 64 ae cd bd 86 49 48 bc e1 33 d6 bd
       -0.015896715 -0.10043028 -0.012224561 -0.10459114
000190 be 27 f8 3c b0 e1 9f 3c b5 9c 89 3d 95 1a 3a 3d
       0.030292388 0.019516796 0.067193426 0.045435507
0001a0 1a e6 a4 bd 90 55 39 bd 70 3c 18 bc d7 f1 72 bd
       -0.08051701 -0.045247614 -0.009291753 -0.059312668
0001b0 66 c8 0e bd b2 c9 65 3d 11 80 b8 bd cc 09 ac bc
       -0.034859084 0.056100555 -0.09008802 -0.021000765
0001c0 75 f9 5b bd 95 56 21 bb 92 09 b3 3c 71 32 f1 bc
       -0.053704698 -0.0024618257 0.02185515 -0.029442998
0001d0 4d 48 25 3d 69 12 e0 bc 44 21 24 3d 3b 41 83 3c
       0.040352155 -0.027352529 0.040070787 0.016022315
0001e0 89 5a 80 bb 54 4d 19 3d 26 28 23 bd 61 8f 69 bd
       -0.0039170426 0.03742726 -0.03983321 -0.057021502
0001f0 f5 1a 01 3c 05 96 2e 3d bb c8 73 3d 7d 7f 52 3d
       0.007879962 0.04262354 0.059517603 0.051391114
000200 4c 23 70 3d 59 86 49 3d 6e 48 8f bc 98 0f 16 bd
       0.05862741 0.04920039 -0.017490592 -0.036635965
000210 90 c4 04 bb 79 9a 1d bd 92 4b 86 bd f3 df f2 bc
       -0.0020258762 -0.038477395 -0.06557383 -0.029647803
000220 a8 49 8b 3b 8c b4 69 3d 02 81 3a bd 5f 2e 91 bd
       0.004250724 0.05705695 -0.045533188 -0.07088923
000230 0f fa f0 bc a3 20 20 3c 1a be f0 3b f7 2c 9f 3c
       -0.029416112 0.009773406 0.0073468806 0.01943062
000240 02 31 21 3d c7 73 c4 3c 4e 61 60 bd 1e b9 81 3c
       0.039353378 0.023980988 -0.054780297 0.015835341
000250 52 07 14 bc a6 35 82 3d 81 f0 36 3b 80 19 4f 3c
       -0.009034948 0.06357889 0.0027914348 0.012640357
000260 91 bc 2d bc 69 e2 8d bd 9b cc c5 3c 06 62 30 bc
       -0.01060404 -0.0692795 0.024145415 -0.010765558
000270 06 47 4f 3c d4 41 97 3c 1f 94 87 3d 9d c5 2d bd
       0.012651211 0.018464006 0.06620049 -0.042424787
000280 cf de dd 3b 31 8e 4c bd 35 20 df 3b 88 65 09 bd
       0.0067709456 -0.04994029 0.0068092593 -0.033544093
000290 40 e1 35 3c 3f 1f 3c bd 62 55 f0 3c 63 8b 60 bb
       0.011101067 -0.045928236 0.029337589 -0.0034262768
0002a0 f0 6c 4b bd 6f 0e 8e 3c 80 2b 5e bc d5 cd 89 bc
       -0.049664438 0.017340867 -0.013560176 -0.016821781
0002b0 88 62 28 3d 6e 47 88 bd ce 9a 01 3d da 22 96 bd
       0.04110959 -0.06654249 0.031641774 -0.07330866
0002c0 69 a4 b7 bb f8 76 df bc e6 f8 89 bb bc 2d e6 3c
       -0.005604316 -0.027278408 -0.004210579 0.02809798
0002d0 38 0a c8 3c cb c8 63 bc 1f 1b 6a 3d 77 f6 86 3c
       0.024418935 -0.013902853 0.05715477 0.016474945
0002e0 c0 3e f3 3d 28 23 9a bc f3 f3 89 3d d0 b1 c9 3c
       0.11877203 -0.018815592 0.06735983 0.02462092
0002f0 86 2f 43 bd f9 89 44 3d d7 59 83 3b 43 ce 19 3c
       -0.047652744 0.047983143 0.0040085125 0.0093875555
000300 f0 f2 a9 bb 51 e4 34 3d af 9f c4 3c 08 35 08 3d
       -0.005186431 0.044163052 0.024001924 0.0332537
000310 4a ed fc 3c c5 80 f5 3c 59 9b 3c 3d 00 9b 0b bd
       0.030874867 0.029968629 0.04604659 -0.034083366
000320 31 11 11 bc 85 0d 62 bc 7d 13 03 3c 8c b8 30 3b
       -0.008854196 -0.013797169 0.008000252 0.0026965467
000330 24 94 93 bd 25 e7 c3 bb 90 a3 39 bd e1 2d 5b bc
       -0.0720599 -0.0059784823 -0.045322 -0.013377638
000340 e1 2d 43 3c 2f 59 6a 3d 03 6f ce bc 3d d5 62 3c
       0.011912794 0.05721396 -0.025199419 0.013844785
000350 7d c8 5b 3d 4b a4 e8 3c d0 ec 9a bd 13 28 86 bc
       0.053657997 0.028398653 -0.075647 -0.01637653
000360 5c 5d 21 3d 52 26 39 bb d5 8e bd 3c 1c 09 8e bc
       0.039395675 -0.00282516 0.023139397 -0.017338328
000370 87 c5 53 3d c0 91 ff 3c 62 47 90 bd 85 9e 8c bd
       0.05170205 0.031197429 -0.07044865 -0.06866173
000380 42 b1 0c 3d e2 a5 26 3d cb 0d 94 bb b4 9e 0e bd
       0.034348734 0.040685542 -0.004518246 -0.03481932
000390 05 d8 44 3d 20 dd 95 bd 6b 76 34 3d e7 e7 b4 bd
       0.048057575 -0.07317567 0.044058245 -0.08833294
0003a0 13 1b f0 3c 68 20 4f 3d 4e 82 8d 3d de 52 8d bd
       0.029309785 0.050568014 0.06909619 -0.06900571
0003b0 47 58 bc 3c 82 6a f9 3c 8d 28 36 3d 80 d4 51 3a
       0.022991313 0.030446295 0.044472266 0.0008004382
0003c0 fa 77 ab bd a7 da 63 3c bd 93 86 3a 29 22 ea 3c
       -0.08372493 0.013907111 0.0010267418 0.028580742
0003d0 78 fa 76 bd b3 2e 45 bc 28 53 02 3d 22 94 90 bc
       -0.06029746 -0.01203506 0.031817585 -0.01764876
0003e0 0a a8 24 3d 5b da 56 bd 64 53 a4 bd 1b 61 35 3c
       0.040199317 -0.052454334 -0.08023718 0.011070515
0003f0 a4 40 9c bd 23 0b 3a bd f1 8d 94 3c 7f b0 3f 3d
       -0.07629517 -0.045420777 0.01813409 0.04679918
